…
2023-05-23 16:14:26.303505: W tensorflow/compiler/tf2tensorrt/utils/py_utils.cc:38] TF-TRT Warning: Could not find TensorRT
Found 87000 images belonging to 29 classes.
2023-05-23 16:14:33.719293: I tensorflow/core/common_runtime/gpu/gpu_device.cc:1635] Created device /job:localhost/replica:0/task:0/device:GPU:0 with 10379 MB memory:  -> device: 0, name: GeForce GTX 1080 Ti, pci bus id: 0000:09:00.0, compute capability: 6.1
Model: "sequential"
_________________________________________________________________
 Layer (type)                Output Shape              Param #
=================================================================
 conv2d (Conv2D)             (None, 62, 62, 32)        896

 activation (Activation)     (None, 62, 62, 32)        0

 max_pooling2d (MaxPooling2D  (None, 31, 31, 32)       0
 )

 conv2d_1 (Conv2D)           (None, 29, 29, 64)        18496

 activation_1 (Activation)   (None, 29, 29, 64)        0

 max_pooling2d_1 (MaxPooling  (None, 14, 14, 64)       0
 2D)

 conv2d_2 (Conv2D)           (None, 12, 12, 64)        36928

 activation_2 (Activation)   (None, 12, 12, 64)        0

 max_pooling2d_2 (MaxPooling  (None, 6, 6, 64)         0
 2D)

 flatten (Flatten)           (None, 2304)              0

 dense (Dense)               (None, 128)               295040

 activation_3 (Activation)   (None, 128)               0

 dense_1 (Dense)             (None, 29)                3741

 activation_4 (Activation)   (None, 29)                0

=================================================================
Total params: 355,101
Trainable params: 355,101
Non-trainable params: 0
_________________________________________________________________
2023-05-23 16:14:34.506263: I tensorflow/core/common_runtime/executor.cc:1197] [/device:CPU:0] (DEBUG INFO) Executor start aborting (this does not indicate an error and you can ignore this message): INVALID_ARGUMENT: You must feed a value for placeholder tensor 'Placeholder/_0' with dtype int32
…
